checkpoint.pth (torch_old, 54944 bytes, 6 tensors)

parameters.fc_first.weight f4 [128, 37]
0	0x3e1f30cb	0.15545957
1	0xbe850367	-0.25979158
2	0x3e85c0fa	0.26123792
3	0xbda94fcd	-0.08267174
4	0xbda84ae5	-0.0821741
5	0xbcf50291	-0.02990845
6	0xbe90ddac	-0.28294122
7	0xbe5e16de	-0.2168841
8	0xbe941630	-0.28923178
9	0xbe531b9e	-0.20616004
10	0x3d8ce02f	0.06878697
11	0xbe3a5e79	-0.18200101
12	0x3dd42597	0.10358732
13	0xbce24ef4	-0.027625538
14	0x3e32788b	0.17428796
15	0xbe8f1c1e	-0.2795114
16	0xbe5e7d1e	-0.21727416
17	0xbd062200	-0.03274727
18	0x3e0c9f10	0.13732553
19	0xbf04fa0e	-0.51944053
20	0x3db8a149	0.09015138
21	0xbdee7ba5	-0.11644677
22	0xb99db498	-0.00030079926
23	0xbf5ff73a	-0.8748661
24	0xbda5d7f3	-0.0809783
25	0xbde4b3a8	-0.11167079
26	0x3e78f449	0.24311937
27	0xbde77a12	-0.1130258
28	0xbdf9fa1b	-0.12205907
29	0xbe95d1a7	-0.29261515
30	0xbc9e4c8c	-0.01932361
31	0xbe1ceff6	-0.15325913
32	0xbed10389	-0.4082301
33	0x3e735bc4	0.23765475
34	0xbefec880	-0.49762344
35	0x3ec01f18	0.37523723
36	0xbe0a4600	-0.13503265
37	0xbe949c82	-0.29025656
38	0xbcde5024	-0.027137823
39	0x3d9435d8	0.072368324
40	0x3dd235d1	0.10264171
41	0x3e5d7fd4	0.21630794
42	0xbe41f081	-0.18939401
43	0xbe3f740e	-0.18696615
44	0x3e24b205	0.16083534
45	0x3e8e7c71	0.27829316
46	0xbe02904c	-0.12750357
47	0x3e53a1ed	0.20667239
48	0xbf000f67	-0.500235
49	0xbda0e0fd	-0.07855413
50	0xbebfcc9d	-0.37460795
51	0xbeaf2298	-0.3420608
52	0x3cc535f3	0.024073577
53	0x3d8feca9	0.07027561
54	0xbe304cd3	-0.17216806
55	0xbe8605a8	-0.2617619
56	0xbdeae91a	-0.11470242
57	0x3e1bbb49	0.15208162
58	0xbf10c919	-0.5655685
59	0x3d074a2c	0.03302972
60	0xbef0d556	-0.47037762
61	0xbf18eb59	-0.5973411
62	0xbe599709	-0.21249022
63	0xbe884394	-0.26614058
64	0x3daa23cd	0.0830761
65	0xbc8f6ede	-0.01750892
66	0xbeb61d69	-0.35569313
67	0x3e04f1dc	0.12982887
68	0x3e6dd927	0.23227368
69	0xbecd34d4	-0.40079367
70	0xbe744cb2	-0.23857382
71	0xbf09eb22	-0.5387441
72	0x3e06df93	0.13171224
73	0xbd7799e0	-0.06044948
74	0xbb74bef0	-0.0037345253
75	0xbe51a6cc	-0.20473784
76	0xbc10ffa6	-0.008850014
77	0xbd444232	-0.04791469
78	0x3ea9cd38	0.33164382
79	0xbe81e8b5	-0.25372854
80	0x3d207b75	0.039180238
81	0x3e4bd4db	0.19905417
82	0xbe76c642	-0.24099067
83	0xbe8155f9	-0.25260904
84	0xbe2a1edb	-0.16613333
85	0xbe4982ab	-0.19678752
86	0xbdc4d9f2	-0.09611882
87	0x3ea74dcb	0.3267654
88	0x3e38c419	0.18043555
89	0xbe289ecc	-0.16466826
90	0x3dcb8f79	0.099394746
91	0xbec76280	-0.38942337
92	0xbdd2ea5e	-0.10298608
93	0x3e98e419	0.29861525
94	0xbc68b1b2	-0.014202522
95	0x3d706e81	0.058699135
96	0xbe35f155	-0.17767842
97	0xbd14fc97	-0.0363737
98	0x3daea6c1	0.085278995
99	0xba9d35f0	-0.0011994224
100	0xbeb491d6	-0.35267514
101	0x3e7eefa2	0.248961
102	0xbcfae30d	-0.030625844
103	0x3e067942	0.13132194
104	0xbe19c167	-0.15015183
105	0xbe13d52d	-0.14436789
106	0x3dba3abd	0.09093235
107	0x3e83598a	0.2565425
108	0xbc1bb6eb	-0.00950406
109	0x3d8e4c01	0.0694809
110	0xbc908dff	-0.017645834
111	0x3e9d18cc	0.3068298
112	0xbdb132a2	-0.086522356
113	0xbe4b21f6	-0.19837174
114	0xbee1016c	-0.43946397
115	0xbf806c83	-1.0033115
116	0x3da9678a	0.08271702
117	0xbc35cf78	-0.011096828
118	0x3d9d9162	0.07693745
119	0x3e1aa71f	0.15102814
120	0x3e0cafd5	0.1373895
121	0xbcd54d07	-0.026037706
122	0x3c5938ff	0.013258218
123	0x3e49cb4a	0.19706455
124	0x3d61f2b4	0.0551631
125	0xbe86ec08	-0.26351953
126	0xbe001030	-0.12506175
127	0x3e28020f	0.16407035
128	0xbdc51b1d	-0.09624312
129	0x3dab3b02	0.08360864
130	0xbeca2f90	-0.39489412
131	0xbdbefa6a	-0.093251064
132	0x3e63bcc1	0.22239973
133	0x3dde1442	0.108437076
134	0xbd2d23c2	-0.04227043
135	0x3b293154	0.0025816755
136	0xbd960da5	-0.07326821
137	0xbec73e4f	-0.38914725
138	0x3e13e25f	0.14441822
139	0x3ea74b75	0.32674757
140	0x3e95b0c2	0.29236418
141	0x3e0b64ac	0.13612622
142	0xbdc6c15c	-0.09704849
143	0xbcf10d9c	-0.029425435
144	0x3dea69d3	0.114459656
145	0x3e81daf8	0.25362372
146	0x3c3deb0c	0.011591684
147	0xbcf3ef4b	-0.02977719
148	0x3d3ef553	0.04662068
149	0x3d3702c9	0.04468039
150	0x3d24bdc9	0.040220056
151	0x3e0e5557	0.13899742
152	0x3da8e67e	0.08247088
153	0x3dc376ef	0.09544169
154	0xbe201344	-0.15632349
155	0xbe101de7	-0.14073907
156	0xbdbecbc6	-0.093162104
157	0xbe44002e	-0.19140694
158	0x3ec9fac8	0.39449143
159	0xbe48d652	-0.19613007
160	0xbe79d18b	-0.2439634
161	0xbf04b0e1	-0.51832396
162	0xbfc84805	-1.5646979
163	0x3cab4873	0.02090857
164	0x3cc3bc18	0.023893401
165	0xbe1621a2	-0.14661267
166	0x3e098698	0.1343025
167	0xbd370dda	-0.044690944
168	0xbeba73fa	-0.36416608
169	0xbdd6ef28	-0.10494834
170	0x3d352f93	0.044234823
171	0x3c54b642	0.012982907
172	0x3f0003b5	0.50005656
173	0xbe7470dc	-0.23871177
174	0x3d130b95	0.035899717
175	0x3d8a816f	0.06762969
176	0x3dab666e	0.08369146
177	0x3dc31c98	0.09526938
178	0xbd5cf3ae	-0.05394333
179	0x3c2a217b	0.010383959
180	0xbc96b276	-0.018395644
181	0x3d93ff0f	0.07226383
182	0x3d749d62	0.059720404
183	0x3c65c799	0.014024639
184	0x3c38c5c9	0.011277624
185	0x3c446114	0.011986036
186	0x3d5b3c87	0.05352452
187	0xbe687885	-0.22702225
188	0x3d14714f	0.036240872
189	0x3e11f523	0.14253668
190	0xbd8a4478	-0.06751341
191	0xbed9cafe	-0.42537683
192	0x3e68e32a	0.22742906
193	0xbf5184bb	-0.81843156
194	0xbfd37635	-1.6520449
195	0xbe31c068	-0.17358553
196	0x3d4844f4	0.048893884
197	0xbdc01f34	-0.093809515
198	0xbe2236da	-0.15841237
199	0xbee11bf6	-0.43966645
200	0xbe63cd1d	-0.22246213
201	0xbd99ccd7	-0.07509773
202	0x3d7d107e	0.061783306
203	0x3da554bc	0.080728024
204	0xbda49452	-0.08036102
205	0xbd1d6989	-0.038430724
206	0x3ed6bb4b	0.41939768
207	0xbd99cc68	-0.075096905
208	0xbd983c30	-0.07433355
209	0xbf187552	-0.59554017
210	0xbd09b918	-0.033623785
211	0xbe8f163a	-0.27946645
212	0x3d9d8513	0.076913975
213	0xbda5674b	-0.08076342
214	0xbf3c4c60	-0.7355404
215	0xbdfa7253	-0.12228837
216	0x3dfe6ecf	0.12423479
217	0x3c3604df	0.01110956
218	0xbf77f117	-0.9685225
219	0xbfa13d94	-1.2596917
220	0x3de90134	0.113771826
221	0x3d5ab20d	0.05339246
222	0xbd53147b	-0.051533204
223	0xbe9e59d8	-0.3092792
224	0x3d88eda6	0.06685953
225	0xbe08bca5	-0.13353212
226	0xbe83bc6e	-0.25729698
227	0x3e4abb52	0.1979802
228	0xbd05e272	-0.03268666
229	0x3d92852b	0.07154306
230	0x3eba02f2	0.36330372
231	0x3e9f3724	0.31096756
232	0xbe067e2a	-0.13134065
233	0x3ebe2859	0.37140158
234	0xbe100d9d	-0.14067693
235	0x3ded1402	0.11576082
236	0x3e270893	0.16311865
237	0x3d1a391a	0.037652113
238	0xbdd74231	-0.10510672
239	0x3e757653	0.23970918
240	0xbcaed95f	-0.021343885
241	0xbe750330	-0.23926997
242	0x3e0ad35f	0.13557194
243	0xbe3faaa7	-0.18717442
244	0x3e86efbd	0.2635478
245	0xbb46a8af	-0.0030312946
246	0xbeb74022	-0.35791117
247	0xbe17524c	-0.14777488
248	0x3e98ff97	0.298825
249	0xbdbcdc7e	-0.09221743
250	0xbcc1d62e	-0.0236617
251	0x3e434cc1	0.19072248
252	0x3d59f1e5	0.053209204
253	0xbd9b790d	-0.07591448
254	0xbe15752a	-0.14595476
255	0x3c74073a	0.014894301

parameters.fc_first.bias f4 [128]
0	0xbe13e9ad	-0.14444609
1	0xbe0fd236	-0.14045033
2	0xbe3f9438	-0.18708885
3	0xbdf278c3	-0.1183944
4	0x3c037f5d	0.008025971
5	0x3c5bd0e0	0.013416499
6	0xbe4eb081	-0.20184518
7	0x3dcf1b20	0.101125956
8	0x3da043b0	0.0782541
9	0x3e4d07b7	0.20022474
10	0xbe49c8ca	-0.19705501
11	0xbe1d83de	-0.15382335
12	0xbdff8ca6	-0.124779984
13	0x3cb0baed	0.021573508
14	0xbbdee4c2	-0.0068021724
15	0x3d165d17	0.03670987
16	0xbcfb9644	-0.0307113
17	0xbd989c48	-0.07451683
18	0xbe5b7f9e	-0.21435401
19	0xb9b73271	-0.00034942062
20	0xbe14c4f2	-0.14528254
21	0xbddd8959	-0.108172126
22	0xbd391a49	-0.045191083
23	0x3da8b7fa	0.08238216
24	0x3e239275	0.15973838
25	0xbe8b9b3a	-0.27266866
26	0x3c32148e	0.010869158
27	0xbd9ccebc	-0.07656619
28	0x3ddaa4ea	0.10675986
29	0x3e5ac0d7	0.21362625
30	0xbddb4756	-0.107069656
31	0xbda37936	-0.079821035
32	0xbc304817	-0.010759375
33	0x3b6fc0c4	0.0036583403
34	0x3e0ca5bd	0.13735099
35	0xbdbbaa58	-0.0916335
36	0x3c7a46b7	0.015275649
37	0x3d856803	0.06513979
38	0x3dc41c7f	0.09575748
39	0x3d65a205	0.056062717
40	0xbe43eea3	-0.19134001
41	0xbd90999c	-0.07060549
42	0xbd9e0cee	-0.0771731
43	0xbe0a77bd	-0.13522239
44	0x3c286dbb	0.010280068
45	0x3e84b210	0.259171
46	0xbdebc9bc	-0.11513087
47	0x3d5a9b1e	0.053370588
48	0xbda86f35	-0.08224336
49	0xbe8af226	-0.2713787
50	0xbe199d83	-0.15001492
51	0x3e0738c6	0.13205251
52	0x3d248d0b	0.04017357
53	0x3cf6e410	0.030138046
54	0xbe27cb74	-0.16386205
55	0xbded05e0	-0.11573386
56	0xbc0f523f	-0.008747636
57	0xbb8354f1	-0.0040079285
58	0x3da6c200	0.08142471
59	0xbdbb2230	-0.0913738
60	0xbcb638d1	-0.022243889
61	0x3ddd7f8c	0.10815343
62	0x3c511e59	0.012763583
63	0x3e10bce8	0.14134562
64	0xbd7cba22	-0.061700948
65	0x3dfe0358	0.124029815
66	0x3cc12650	0.02357784
67	0xbc0192dc	-0.007908549
68	0x3ddc55ab	0.10758527
69	0xbcb6c51a	-0.022310782
70	0x3e04f76d	0.1298501
71	0x3d9b5cfe	0.07586096
72	0x3d837be4	0.06420115
73	0x3cf3f3e7	0.029779388
74	0xbe09cb65	-0.13456495
75	0xbd28708f	-0.04112297
76	0xbe00db22	-0.12583593
77	0xbdbf8972	-0.093523875
78	0x3dbcac72	0.09212579
79	0xbe8d2777	-0.27569172
80	0xbe7d290e	-0.24722692
81	0x3bbf07f2	0.0058298046
82	0xbbe30f40	-0.006929308
83	0x3d796007	0.060882594
84	0x3d36d435	0.04463597
85	0xbd94f749	-0.072737284
86	0x3cf40ceb	0.029791316
87	0xbe05fbee	-0.13084385
88	0xbd920351	-0.07129539
89	0xbdd869eb	-0.10567077
90	0x3d5f53e9	0.054523382
91	0xbe0a70dc	-0.13519615
92	0x3d066193	0.032807898
93	0xbc13b32f	-0.009014889
94	0xbd5a734f	-0.053332623
95	0x3ccd79ab	0.02508243
96	0xbe0d866d	-0.1382081
97	0x3c65e04d	0.014030528
98	0xbe9ab9ea	-0.30219966
99	0x3cc481d1	0.023987683
100	0x3e6350ae	0.22198746
101	0xbcda1698	-0.026622102
102	0xbdc79d5d	-0.097468115
103	0xbe94f635	-0.2909409
104	0x3d8c9732	0.06864776
105	0x3ded3dbe	0.11584042
106	0xbd21e93d	-0.039529074
107	0xbdfe6582	-0.12421705
108	0xbe64587c	-0.22299379
109	0x3d2af153	0.04173405
110	0x3decb99d	0.115588404
111	0xbcd91068	-0.02649708
112	0xbcbf746a	-0.02337094
113	0x3db3edd9	0.087856
114	0xbe43ac6c	-0.19108742
115	0x3cec3e98	0.02883844
116	0xbde76f4e	-0.113005266
117	0xbd8844bf	-0.06653737
118	0xbd9ee981	-0.07759381
119	0x3d414177	0.047181573
120	0xbc67308c	-0.014110696
121	0x3daa87d7	0.08326691
122	0xbd880ae8	-0.06642705
123	0x3dc493e5	0.09598521
124	0xbd63e3d9	-0.055637214
125	0xbd5c6a21	-0.05381215
126	0xbbc92bde	-0.0061392626
127	0x3c08e1d2	0.008354621

parameters.fc_0.weight f4 [64, 128]
0	0x3d568d89	0.052381072
1	0xbd6c17b0	-0.057639778
2	0x3db5caca	0.088765696
3	0xbcc32cda	-0.023825098
4	0x3eb53068	0.35388494
5	0xbd979871	-0.07402123
6	0x3aa5bc1a	0.001264456
7	0xbe809525	-0.25113788
8	0xbcb8c452	-0.02255455
9	0xbe311891	-0.17294528
10	0x3e12bd8e	0.14330122
11	0x3e5a4ee4	0.21319157
12	0x3e287d45	0.16454037
13	0xbd28a0a5	-0.041168828
14	0xbe1c5592	-0.15267017
15	0x3bac44a6	0.005257207
16	0x3d8d72cd	0.06906662
17	0xbe4b8ffe	-0.19879147
18	0x3caa9485	0.020822773
19	0xbc1771b0	-0.009243414
20	0xbe89cec0	-0.2691555
21	0x3e4fafb0	0.20281863
22	0x3e649d7f	0.22325705
23	0xbc9a8320	-0.018861353
24	0xbee6392a	-0.44965488
25	0xbe47108f	-0.1943991
26	0x3d86064e	0.06544171
27	0xbd8afb64	-0.0678623
28	0xbe7642e4	-0.24048954
29	0xbdc0b578	-0.094096124
30	0xbe9aa036	-0.30200356
31	0xbec04140	-0.37549782
32	0xbe684eb9	-0.2268628
33	0xbdac63cc	-0.08417472
34	0x3c3f8e33	0.011691618
35	0xbd2c04df	-0.041996833
36	0x3deaa025	0.114563264
37	0x3e2d69a3	0.16934828
38	0x3e91a1a2	0.2844363
39	0x3dcd5799	0.100264736
40	0x3e4420bc	0.19153112
41	0xbe552cb1	-0.2081783
42	0xbcffbfc6	-0.031219374
43	0x3d9f2e7a	0.077725366
44	0x3d47ab18	0.048747152
45	0x3db50c74	0.08840266
46	0xbda83c0b	-0.08214577
47	0xbe8fa0ef	-0.2805247
48	0xbe590bba	-0.2119588
49	0xbdf604d3	-0.12012639
50	0x3e4a18fb	0.19736092
51	0x3e09f037	0.13470541
52	0x3daf1f1c	0.085508555
53	0x3f0e45d4	0.555753
54	0x3d7c3af0	0.061579645
55	0x3c1c3872	0.009534942
56	0x3cf49c90	0.029859811
57	0xbd5aa7d4	-0.05338271
58	0x3e612c46	0.21989545
59	0x3ce8a76f	0.028400151
60	0x3dffb2bf	0.12485265
61	0xbdc6076f	-0.096693866
62	0xbd829357	-0.06375759
63	0xbe2e2e99	-0.17009963
64	0xbe4f5ec6	-0.20250997
65	0xbdf09563	-0.11747243
66	0xbe1a77e5	-0.15084799
67	0x3f39fdcf	0.72652906
68	0xbd748cc0	-0.059704542
69	0xbd9f7ea0	-0.07787824
70	0xbe507baa	-0.20359674
71	0xbe49046e	-0.19630596
72	0xbe76e5dd	-0.24111123
73	0x3e74f398	0.23921049
74	0xbde33bdd	-0.110954024
75	0x3dc4e68c	0.09614286
76	0xbe3dfda5	-0.18553789
77	0xbca02e2f	-0.019553272
78	0xbeafa2e3	-0.3430396
79	0x3e88a6de	0.2668981
80	0xbd78c3ab	-0.06073348
81	0xbce008a1	-0.027347865
82	0xbd832e47	-0.06405311
83	0xbe594ed2	-0.21221474
84	0xbe4bfd5c	-0.19920868
85	0xbd711668	-0.05885926
86	0xbe90157a	-0.28141385
87	0xbdb0db42	-0.0863557
88	0xbd9e4de1	-0.07729698
89	0xbe8964df	-0.2683477
90	0x3c230d81	0.00995195
91	0xbe4fcde8	-0.20293391
92	0xbd5b90bb	-0.053604823
93	0xbe17a6b4	-0.14809686
94	0xbd86989a	-0.06572075
95	0xbe86dafc	-0.26338947
96	0xbd2255a5	-0.03963246
97	0x3dc7a3f9	0.09748072
98	0x3e2eb0bb	0.17059605
99	0x3da118dc	0.0786607
100	0xbe8c52f7	-0.27407047
101	0x3e044895	0.12918313
102	0x3e0c427e	0.1369724
103	0x3d982ff5	0.07431022
104	0x3e4c1152	0.19928482
105	0x3e968ea3	0.29405698
106	0xbeb9ab36	-0.36263436
107	0xbe3c5967	-0.1839348
108	0x3d528ab4	0.05140181
109	0xbdf3a3e4	-0.11896494
110	0x3e5a64fa	0.21327582
111	0xbdbdbfe8	-0.09265119
112	0xbd76a1c2	-0.060212858
113	0xbd386e1e	-0.04502689
114	0xbe0745f0	-0.13210273
115	0x3e632895	0.2218345
116	0xbe377724	-0.17916542
117	0x3df9ced9	0.12197656
118	0xbd09aeca	-0.033613957
119	0x3dc50c2b	0.096214615
120	0x3da0c737	0.07850497
121	0x3d7837fa	0.06060026
122	0x3d8ba38b	0.06818303
123	0xbdc40f25	-0.09573201
124	0xbe465135	-0.19366916
125	0xbd0c59b4	-0.034265235
126	0x3dbc32f9	0.0918941
127	0xbd84d89c	-0.064866275
128	0xbe0dab4e	-0.13834879
129	0x3dbe8086	0.09301858
130	0xbe8460c5	-0.2585508
131	0xbe8b38c5	-0.2719175
132	0xbd51984d	-0.051170636
133	0x3e671291	0.22565676
134	0x3e0ab516	0.13545641
135	0xbcc9ee0f	-0.024649648
136	0xbd7287b2	-0.05921144
137	0xbe1b05a4	-0.1513887
138	0xbc76cf73	-0.015064108
139	0xbe045c9b	-0.12925951
140	0xbab211c0	-0.0013585612
141	0xbd29e69d	-0.041479696
142	0x3e1a3860	0.15060568
143	0x3b9c6ba2	0.004773573
144	0xbeb48053	-0.35254154
145	0x3e7684d6	0.2407411
146	0xbe07f503	-0.13277058
147	0x3ea5dfa1	0.32397178
148	0x3e53cdcc	0.20683974
149	0x3e63d0a9	0.22247566
150	0xbddf253b	-0.10895773
151	0xbeb4a415	-0.35281435
152	0xbe9357f4	-0.2877804
153	0xbe13cb88	-0.1443311
154	0x3dc3fb2b	0.09569391
155	0x3d23d91d	0.040001977
156	0xbe4960f4	-0.19665891
157	0x3d10429b	0.03521977
158	0xbea4f9d1	-0.32221845
159	0x3e0b188c	0.13583583
160	0x3e5c9f71	0.21545197
161	0xbdb8710e	-0.090059385
162	0xbdc0216d	-0.093813755
163	0xbe2ec25c	-0.1706633
164	0x3c35fa54	0.011107046
165	0x3d100826	0.03516402
166	0x3dba048d	0.09082899
167	0xbd82ade1	-0.06380821
168	0xbc788d18	-0.015170358
169	0xbecb16fd	-0.39665976
170	0x3d3d77e9	0.046256933
171	0xbdf883c4	-0.12134507
172	0x3dc6de7a	0.09710403
173	0x3e52f6ff	0.20602034
174	0x3eaaed10	0.3338399
175	0x3d964b40	0.073385715
176	0x3e83128b	0.25600085
177	0x3df594e5	0.1199129
178	0xbeb251d9	-0.3482807
179	0x3becb7ab	0.0072240434
180	0xbd5cb015	-0.053878862
181	0xbdc478c2	-0.09593345
182	0x3eb1b192	0.34705788
183	0x3cc95d74	0.024580695
184	0xbe415a5c	-0.18882126
185	0xbe4a7dfa	-0.19774619
186	0xbe8e813e	-0.2783298
187	0x3dc1fb42	0.09471752
188	0x3e464fb5	0.19366343
189	0xbd199faa	-0.037505783
190	0xbdd146c3	-0.10218575
191	0xbdd24a31	-0.10268057
192	0x3e2be9ad	0.16788359
193	0x3c654ed6	0.013995847
194	0x3e1a412e	0.15063927
195	0xbd92d726	-0.071699426
196	0xbe38633c	-0.18006605
197	0x3df17d6f	0.11791503
198	0x3e2ae800	0.16690063
199	0x3cabd14a	0.02097382
200	0xbe20b2bb	-0.1569318
201	0x3e03a3af	0.12855409
202	0xbc2dbdbd	-0.010604319
203	0x3dde38bf	0.10850667
204	0xbe2c606f	-0.16833661
205	0xbd806e1f	-0.06271004
206	0xbea6146d	-0.3243746
207	0x3e0a0506	0.13478479
208	0x3e1fdc2c	0.15611333
209	0x3e8eaead	0.27867642
210	0x3e0137aa	0.1261889
211	0x3ed7912a	0.4210294
212	0xbe9933b0	-0.29922247
213	0xbdb438bb	-0.08799883
214	0xbe1e18e6	-0.15439186
215	0x3e804c9c	0.25058448
216	0xbd107d22	-0.035275586
217	0xbe8a391f	-0.26996705
218	0xbde4ab58	-0.11165494
219	0x3c9d9652	0.019236717
220	0x3e5e1115	0.21686204
221	0x3eddc51e	0.4331445
222	0xbc86b4c7	-0.016443623
223	0xbe428ced	-0.18999071
224	0xbea60071	-0.32422212
225	0xbe2280cf	-0.15869449
226	0x3dcb72d1	0.09934009
227	0xbde9fe98	-0.11425513
228	0xbe7eea14	-0.24893981
229	0xbbb8a676	-0.005635078
230	0x3c88f591	0.016718658
231	0xbc6187fa	-0.0137653295
232	0x3d98d8ea	0.07463248
233	0xbe07a958	-0.13248193
234	0xbe8f7c35	-0.2802445
235	0xbb8b4c03	-0.0042510047
236	0xbdf9de14	-0.12200561
237	0xbd440e72	-0.04786534
238	0x3db6ee5b	0.089321814
239	0x3d597678	0.053091496
240	0xbe1b6142	-0.1517382
241	0x3e00ce56	0.12578711
242	0x3da48cf0	0.08034694
243	0x3c04a645	0.008096282
244	0x3ce48155	0.027893702
245	0x3c232cac	0.009959381
246	0xbe0e271d	-0.13882108
247	0xbc9bc4b5	-0.019014696
248	0xbc116496	-0.008874079
249	0x3c9fd0d5	0.019508759
250	0xbde221cb	-0.11041602
251	0xbe3e7bfb	-0.18601982
252	0xbddec359	-0.10877103
253	0x3d9e2d23	0.07723453
254	0x3e0631ee	0.13104984
255	0xbe966d45	-0.2938024

parameters.fc_0.bias f4 [64]
0	0x3d8e57cc	0.0695034
1	0x3df2a56b	0.11847957
2	0xbdbcad6b	-0.09212764
3	0x3eee9e7a	0.46605283
4	0x3dcb3f18	0.099241436
5	0x3ee7738c	0.45205343
6	0x3bccb728	0.00624742
7	0xbd83b16c	-0.06430325
8	0xbd804fb1	-0.062652
9	0xbcd98f25	-0.026557514
10	0xbd89c44e	-0.06726895
11	0x3e81b553	0.25333652
12	0xbe5245ee	-0.20534489
13	0xbc9c5057	-0.019081278
14	0xbd4ebd1f	-0.05047333
15	0x3f09f0ee	0.53883255
16	0x3cf11ae9	0.029431777
17	0x3d9dc1c1	0.07702971
18	0xbdc4e207	-0.09613424
19	0xbd1f2b99	-0.038859937
20	0xbd935e66	-0.071957394
21	0x3d4122e0	0.0471524
22	0xbd373faf	-0.044738468
23	0x3cbe1fa0	0.02320844
24	0x3cafe3a7	0.021470858
25	0x3d089988	0.033349544
26	0x3e533fd9	0.20629825
27	0xbc3bc9f0	-0.01146172
28	0xbd99960a	-0.07499321
29	0xbccfb655	-0.025355497
30	0xbdbf04bf	-0.09327077
31	0x3c887f59	0.016662287
32	0x3ca5db0a	0.020246048
33	0xbe3a4e3a	-0.18193904
34	0xbd802ac0	-0.06258154
35	0xbd3736e9	-0.0447301
36	0xbd80de83	-0.06292441
37	0xbe4bd819	-0.19906653
38	0x3edfb8b8	0.43695617
39	0xbdd65ac9	-0.10466535
40	0x3e31c536	0.17360386
41	0xbdb99180	-0.09060955
42	0x3e35b4d7	0.17744766
43	0x3e925b50	0.2858529
44	0x3cc0b06b	0.023521623
45	0x3e1d092e	0.15335533
46	0x3e26293d	0.16226669
47	0x3d44756c	0.047963545
48	0x3f24ae0d	0.6432808
49	0x3dfdb7bd	0.12388561
50	0x3e77441d	0.24147077
51	0x3d9b763d	0.075909115
52	0x3e1a16dc	0.15047783
53	0xbddf7e36	-0.10912745
54	0x3df3afe3	0.11898782
55	0xbe179695	-0.14803536
56	0x3d73bbc4	0.05950524
57	0xbe1823dc	-0.1485743
58	0x3eb6bb31	0.3568969
59	0xbe141f86	-0.1446515
60	0x3e05b4c1	0.13057233
61	0xbdc869a6	-0.09785776
62	0x3e275a40	0.16343021
63	0xbd6bd023	-0.05757154

parameters.fc_last.weight f4 [4, 64]
0	0x3e8bc91c	0.27301872
1	0x3e2cc56b	0.16872184
2	0x3e8dfdbd	0.2773265
3	0x3deb38a0	0.1148541
4	0x3d938b1e	0.07204269
5	0x3de5e1c5	0.11224703
6	0x3e71765a	0.23580304
7	0xbf1fc170	-0.6240454
8	0xbe17412a	-0.14770952
9	0x3ef3cf92	0.476193
10	0xbdc95fe3	-0.09832742
11	0x3e864ac3	0.26228914
12	0xbe53e5b7	-0.20693098
13	0x3ec0a6bd	0.3762721
14	0x3d50a103	0.050934803
15	0x3e5e9f4a	0.21740451
16	0x3e8d9e70	0.2765994
17	0xbe9b7bc1	-0.30367854
18	0x3cee796d	0.029110635
19	0x3d22ea67	0.039774325
20	0xbe48ec0a	-0.19621292
21	0x3dfb8162	0.12280537
22	0x3d6b9ed0	0.057524502
23	0x3e392740	0.18081379
24	0x3d356445	0.044285078
25	0x3dc3ce12	0.09560789
26	0x3d2e6179	0.042573426
27	0xbe821a44	-0.25410664
28	0x3da3a580	0.07990551
29	0xbea7b738	-0.32756972
30	0x3e5e3f43	0.2170382
31	0xbe9a53a6	-0.30141944
32	0xbd7fce0a	-0.062452354
33	0xbdbf6de7	-0.09347134
34	0xbdb5712f	-0.08859479
35	0x3a65712b	0.000875252
36	0xbdb722b8	-0.08942169
37	0xbe76a807	-0.24087535
38	0x3e2f4fce	0.17120287
39	0x3d9bc93c	0.07606742
40	0x3e81e1ff	0.25367734
41	0x3e1b50ff	0.15167616
42	0x3e9dc12a	0.30811435
43	0x3e49784c	0.19674796
44	0x3d891952	0.066942826
45	0x3efca193	0.4934202
46	0x3e50db27	0.203961
47	0x3ea5684e	0.3230614
48	0x3e798af9	0.2436942
49	0x3e096044	0.13415629
50	0x3e3e1a75	0.1856478
51	0x3e186f9d	0.14886327
52	0x3ce1fc0c	0.027586006
53	0xbd9b5e9d	-0.075864054
54	0x3da48b85	0.08034424
55	0xbe1076e7	-0.14107858
56	0xbebd4b97	-0.36971733
57	0xbe580a3b	-0.21097653
58	0x3e257516	0.16157946
59	0xbe39f674	-0.1816042
60	0x3e043365	0.1291023
61	0x3be41f8c	0.0069617685
62	0x3e0f7fcf	0.14013599
63	0x3e7781e1	0.24170639
64	0x3eb05e1f	0.3444681
65	0x3e0cd26e	0.13752148
66	0x3ecd519c	0.40101326
67	0x3dbd75d9	0.09250993
68	0x3e3ec76f	0.18630765
69	0x3e47742c	0.1947791
70	0x3efdc212	0.49562126
71	0xbc9d9638	-0.019236669
72	0x3e196ca0	0.14982843
73	0x3e05cf83	0.1306744
74	0x3d1bc594	0.038030222
75	0x3e10ca09	0.1413957
76	0xbe7073a7	-0.23481618
77	0x3ebae9e5	0.36506572
78	0xbe5be800	-0.2147522
79	0x3e5625f5	0.20912917
80	0x3e89758c	0.26847494
81	0xbead866c	-0.33891618
82	0xbe5b8730	-0.21438289
83	0x3a192109	0.00058414094
84	0xbdef1a83	-0.116749786
85	0x3e4138f5	0.18869384
86	0xbe8a3c67	-0.26999208
87	0xbec8ad40	-0.3919468
88	0x3deee2c7	0.11664348
89	0x3cf7046c	0.030153476
90	0x3e17da03	0.14829259
91	0x3d8c4377	0.068488054
92	0xbddc2644	-0.10749486
93	0x3df21cb9	0.11821885
94	0x3edc3cd7	0.43015167
95	0xbebc88d4	-0.36823142
96	0x3d9d92f8	0.07694048
97	0xbd3c6c4c	-0.046001717
98	0xbf0ad141	-0.54225546
99	0x3efb2857	0.49054214
100	0xbe0c1d69	-0.13683094
101	0xbe26fd14	-0.16307479
102	0x3e279cbe	0.16368386
103	0x3e12b930	0.14328456
104	0x3e600fb9	0.21880998
105	0x3db75320	0.08951402
106	0xbec79f5e	-0.38988775
107	0x3e2be7d1	0.1678765
108	0x3e459b3c	0.19297498
109	0x3ef53f8c	0.47900045
110	0x3e1c90d7	0.15289627
111	0x3eb37505	0.35050216
112	0x3e80b89b	0.25140843
113	0x3e411c91	0.18858553
114	0x3df488a1	0.119401224
115	0xbdd575c4	-0.10422853
116	0xbd09e2e4	-0.033663645
117	0x3e40425e	0.18775317
118	0x3dd642f3	0.10461988
119	0xbe4cb99b	-0.19992678
120	0xbf006c61	-0.50165373
121	0xbe011ab6	-0.12607846
122	0x3e1e2525	0.15443857
123	0xbd3d8c22	-0.04627622
124	0x3e0769f7	0.13224016
125	0x3e95b937	0.2924287
126	0x3e0ef1e7	0.13959466
127	0x3e5168fd	0.20450206
128	0x3f00b802	0.50280774
129	0x3ead813e	0.33887666
130	0x3e230136	0.1591843
131	0x3e6ef54f	0.23335765
132	0x3c4afc16	0.0123892035
133	0x3defc85b	0.11708137
134	0xbe0adbe5	-0.13560446
135	0x3de6e2d4	0.11273733
136	0x3d787217	0.06065568
137	0x3e6ed6f7	0.2332419
138	0x3d11e6c4	0.035620466
139	0x3b742cce	0.003725815
140	0xbee4530c	-0.4459461
141	0x3ebe4ae0	0.371665
142	0xbe96953b	-0.2941073
143	0x3e6d6af2	0.23185328
144	0xbb8d1f4d	-0.00430671
145	0xbe93311a	-0.287484
146	0xbe333a89	-0.17502798
147	0xbf163cbc	-0.58686423
148	0xbf08a621	-0.5337849
149	0x3f15958f	0.58431333
150	0xbcc5ab9d	-0.024129683
151	0x3e20e40c	0.15711993
152	0x3e93fbef	0.28903148
153	0xbf07fdb2	-0.53121483
154	0x3e8461c2	0.25855833
155	0xbe8fea0e	-0.28108257
156	0xbd394549	-0.04523209
157	0x3e315b99	0.17320098
158	0xbdb32ed4	-0.08749166
159	0x3e55b558	0.20869958
160	0x3d64cbb4	0.05585833
161	0xbddd5071	-0.108063586
162	0xbe60864b	-0.21926229
163	0x3e86b026	0.26306266
164	0x3cac6a93	0.021046912
165	0xbdc6f207	-0.09714132
166	0x3e2a1e5f	0.16613148
167	0xbd14c9ad	-0.036325146
168	0x3e6c5922	0.23080876
169	0xbe9c15df	-0.30485436
170	0xbf19823d	-0.5996435
171	0x3dd1d690	0.10246003
172	0x3e80c2cb	0.25148615
173	0x3e97fc6a	0.29684764
174	0x3c84bf58	0.016204521
175	0x3ea1e41b	0.31619343
176	0x3e338f80	0.1753521
177	0x3f1c05e8	0.6094651
178	0x3e19dfaf	0.15026735
179	0x3e34821a	0.17627755
180	0x3d9418b1	0.07231272
181	0x3dff51e4	0.12466791
182	0x3e07d00b	0.13262956
183	0xbec1724c	-0.37782514
184	0xbe8c5a3a	-0.27412587
185	0xbe983b56	-0.2973277
186	0x3e994119	0.29932478
187	0xbd3c09a5	-0.045907635
188	0xbe805c74	-0.25070536
189	0x3d684699	0.056707952
190	0xbea28fca	-0.31750327
191	0x3e239e13	0.1597827
192	0x3e035055	0.12823613
193	0x3e1a42b9	0.15064515
194	0x3d51393f	0.051079985
195	0x3dbab6b8	0.09116882
196	0x3e810848	0.2520163
197	0x3e53a8e4	0.20669895
198	0x3f08ab48	0.53386354
199	0xbdc18944	-0.094500095
200	0xbd3d3e62	-0.04620207
201	0x3dfd2b55	0.123617806
202	0xbd25a134	-0.04043694
203	0x3d994f9b	0.07485887
204	0xbd86d5ef	-0.06583773
205	0x3e2f2c6a	0.17106786
206	0xbf085dd5	-0.53268176
207	0x3e38175d	0.17977662
208	0x3f16ea93	0.5895168
209	0xbf2192f7	-0.63114876
210	0xbf1e1e13	-0.6176464
211	0x3ed3d6fc	0.41374958
212	0xbeda0dc2	-0.4258862
213	0x3e15dc0b	0.14634721
214	0xbd92f02f	-0.07174718
215	0x3eb19154	0.3468119
216	0x3e83388e	0.25629085
217	0xbe13a839	-0.1441964
218	0x3d9a92ef	0.075475566
219	0xbe9c480a	-0.3052371
220	0xbd370de5	-0.044690985
221	0x3ec1be79	0.37840632
222	0x3d84fb82	0.06493284
223	0xbee8904d	-0.45422593
224	0x3d90253a	0.070383504
225	0x3d1330a4	0.03593506
226	0xbd93e6a9	-0.07221729
227	0xbcd290db	-0.025703838
228	0xbe56b1e5	-0.20966299
229	0xbea7b084	-0.32751858
230	0x3e69d086	0.22833452
231	0x3ee69683	0.45036706
232	0x3df9cb3e	0.121969685
233	0x3e615bb5	0.2200764
234	0xbe93d1e3	-0.28871068
235	0x3dafad95	0.0857803
236	0x3f0d9a18	0.55313253
237	0x3ed489ac	0.41511285
238	0x3e8bee02	0.27330023
239	0x3e8affbf	0.27148244
240	0x3e6ee824	0.23330742
241	0xbd94d176	-0.07266514
242	0xbc305284	-0.010761861
243	0xbe732ab8	-0.23746765
244	0x3e0f245a	0.13978711
245	0xbef1a41b	-0.47195515
246	0x3e3c669c	0.18398517
247	0xbe79e874	-0.2440508
248	0xbd94165f	-0.072308294
249	0xba800aee	-0.0009768882
250	0x3e4ab6ae	0.1979625
251	0x3cb5049c	0.022096924
252	0x3e2fa035	0.17150958
253	0xbe83a365	-0.25710598
254	0xbeb06c17	-0.34457466
255	0xbf04dd76	-0.5190042

parameters.fc_last.bias f4 [4]
0	0x3f0fe5b7	0.5620989
1	0x3eea4994	0.4575926
2	0x3f0ff8f0	0.56239223
3	0x3f0f4c8e	0.5597619
